model/model.pth (torch, 18176 bytes, 4 tensors)

weight f4 [256, 11]
00000000: f022 30be 1fb8 cd3d c1b6 dcbd b116 7abe
00000010: d0e3 4d3e 6f9d af3d 8acb 513e 554c 85be
00000020: 0a8f 6a3d 7258 5fbe cbe0 77be 7099 8abe
00000030: 9bff aa3d d779 b73d ffbb 0e3e 46d8 8a3d
00000040: 4a81 c0bc f876 4abe 3a4e 8dbe c64c 4f3c
00000050: fe20 90be 7b38 42be 2e57 a5bd 3483 123e
00000060: bdc4 433e 6052 c3bd 7a71 2e3e 3161 91be
00000070: 2447 5d3e 5b46 db3d 0fb9 7abd 46c2 8abe
00000080: 25f8 ac3c fa1b f93b 3aec 243d 299c f13d
00000090: 04fd 8fbe db42 5c3e 4bbe 8b3e d37a 8d3e
000000a0: da57 5ebe 724d 573e c462 123e 66a8 5d3d
000000b0: 23d2 32be 1ef4 193d a941 91bd ef9e 8cbe
000000c0: a477 773e ed82 363e e293 213e e769 97be
000000d0: f935 27be cae3 493e 4b2c 9a3d 5f1a 02be
000000e0: c411 de3d 71f4 53be 3562 48be 5065 f53d
000000f0: 637c 0abd 21d4 6cbe fc24 703e c5a2 99be
00000100: ec37 a5be dc2b dd3c 6b5d a4bc fa6f 7c3e
00000110: 1b18 70bd 7a60 3bbe 1d46 52be 055c 7b3e
00000120: 8c49 42be 0de9 653e 0a60 43be 4902 f43d
00000130: b750 99be 2d65 abbd c748 80bd 6a1c 96be
00000140: ecca 44be f112 55bd a5c1 103d a5ba 62be
00000150: cb13 e73b aea8 7c3e 239b 373d 2ad9 44be
00000160: b5bf 1fbe 42ca 0cbd 1120 b7bd 6d22 07bd
00000170: 3fa8 5b3e 8e79 1f3e 764f 99be 06b0 99be
00000180: 1d3c d93d 7af6 95bd 412a 2bbe 6f64 4dbe
00000190: 8d33 01be 41b4 88be e2d2 10be 1c8c 79be
000001a0: 81b6 8abe cadb d53d 9241 3bbe b623 d3bd
000001b0: 1e11 1e3e 2634 e53d e5c2 213c 96f7 82be
000001c0: b063 9d3e c80a 523d c025 6abe 9358 d73d
000001d0: b4e0 323e 3404 5bbe 5dc8 72be 5f2c ec3d
000001e0: 6c10 73be 2929 fd3d f4f0 05be ba5d 97be
000001f0: 97f3 1d3e 626c 933d eb54 173e 59be 85bc
00000200: dc14 44bd 12fe 87be b080 82be 3adf 5f3d
00000210: 5740 68be 7302 dbbd d985 bd3d 9ee6 653e
00000220: ffcd 3ebe 7546 863c 4947 16be 84a2 a33d
00000230: 2855 3dbb 34f5 e9bd 6ba0 75be 8cbb de3c
00000240: 48e2 5b3e 7c5b 9d3c 99ec d6bd 4bfd 263e
00000250: caf3 0c3e 46a5 95be d7a2 dcbc 1216 89be
00000260: 72b8 2c3e b469 233e 34e1 cbbc 9bd2 593e
00000270: 057c a23d e80a ebbd e98e 22bd 3722 95be
00000280: e80b d93d ad32 62be 7ff9 573d 5dc0 423e
00000290: c88d b5bd 7065 953e e200 d0bc 27eb 95be
000002a0: 23bd eebc 0cac 6d3d f880 84bd 8150 8a3d
000002b0: f36e 763d 53a1 7d3e ac20 54be 86ae 18be
000002c0: 49a5 0fbe ee03 29be 8462 c63d 7f6a 8abe
000002d0: a005 1a3e 6a67 94be f2a7 473e 128a 59be
000002e0: 0f7a 23be 250e 823e 233f 783e 0eab 853c
000002f0: 4af1 4ebe bb7f 223e 6108 74be 19a7 903e
00000300: 07d8 8ebe 8c53 57bb 7d27 6fbe 211f 1bbe
00000310: e21d dabd f372 363d ffd6 8c3e 2492 94be
00000320: 0214 d23d 2741 483d 47ad 843e 9183 98be
00000330: 7798 0cbe dbce 24be e2ee 82be 2157 1abe
00000340: d2df 2bbd 527c a13e ba58 e23d 9f68 61bd
00000350: c32d 6bbe 8b76 883e cca0 97be 2edd 0ebd
00000360: ee1b 933e e4f2 0e3e 6a59 963e 4e67 143c
00000370: 9761 3c3d 9d23 093e 3290 2abe addf 30be
00000380: c176 2cbd 2f67 e83d 9a8b 9d3d d48d 253e
00000390: fb0c e2bd 7dc1 d43c 40bb 3bbe 91e9 e23d
000003a0: f48d 0ebe 52d9 983d 2e75 a23d 75a4 44be
000003b0: 9a52 b53d f56e 50be 100d 21bc 3968 91bb
000003c0: e39e 4e3e d76c 5e3e 811e 343e 5428 aa3e
000003d0: a8c8 7e3e be17 02be 4935 08be 79fa 31be
000003e0: d3eb 51be 15c8 403d 83c8 813e 5ee9 9c3d
000003f0: 4a08 b7ba 4b12 50be 405c 6ebe e050 ccbc
-0.17200828 0.10044884 -0.10777045 -0.24422719 0.20106435 0.0857495 0.204878 -0.260348
0.05726532 -0.21811083 -0.24206845 -0.2707019 0.08349534 0.08958786 0.13938902 0.06779532
-0.02349915 -0.19771945 -0.27598745 0.012652582 -0.2815017 -0.18966858 -0.08073269 0.14307863
0.19118018 -0.09537196 0.17035475 -0.28394464 0.21609169 0.107067786 -0.061211642 -0.27101344
0.021114418 0.007602212 0.040264346 0.11797363 -0.28122723 0.21509878 0.2729362 0.2763277
-0.217132 0.21025637 0.14295489 0.054115675 -0.17462973 0.037586324 -0.07092602 -0.27465007
0.24166733 0.17823382 0.15779069 -0.29572985 -0.16329183 0.19715801 0.075279795 -0.12705372
0.10843232 -0.20698716 -0.19568713 0.119822145 -0.03381003 -0.23127796 0.23451608 -0.30006996
-0.32269228 0.026998453 -0.020064076 0.2465209 -0.05861674 -0.18298522 -0.20534559 0.24546821
-0.18973368 0.22452183 -0.19079605 0.11914498 -0.29944393 -0.08368907 -0.06263881 -0.29318553
-0.19218034 -0.052020017 0.035340924 -0.22141512 0.00705192 0.24673721 0.044825684 -0.19223467
-0.15600474 -0.034372576 -0.08941663 -0.032991815 0.214509 0.15573713 -0.29943436 -0.30017108
0.10607169 -0.07322402 -0.16715337 -0.20057844 -0.12617321 -0.26700023 -0.14142945 -0.24369854
-0.27092364 0.10442312 -0.18286732 -0.10309546 0.15436217 0.11191587 0.009873127 -0.25579518
0.30740118 0.051279813 -0.22865963 0.10514941 0.1746853 -0.21388322 -0.23709245 0.115319006
-0.23736733 0.12361366 -0.13080198 -0.29563695 0.15424953 0.07198407 0.14778487 -0.016326116
-0.047871456 -0.26561028 -0.25488806 0.054656245 -0.22680794 -0.106938265 0.09254045 0.22451255
-0.18633269 0.016391018 -0.1467563 0.07989982 -0.0028889868 -0.11423722 -0.23986976 0.027189039
0.21473038 0.019208662 -0.10494346 0.16307561 0.13764873 -0.29227656 -0.026933117 -0.2677465
0.16867235 0.15958291 -0.024887659 0.21271746 0.07933811 -0.114766896 -0.03968707 -0.29127666
0.10597974 -0.22089644 0.052728172 0.19018693 -0.08864933 0.29178953 -0.025391046 -0.2928097
-0.029142922 0.058025405 -0.06469911 0.06753636 0.060164403 0.24768572 -0.20715588 -0.14910325
-0.14027895 -0.16505405 0.09686759 -0.27034375 0.15041208 -0.2898515 0.1949766 -0.21244076
-0.1596453 0.25401416 0.24242835 0.016316917 -0.20209232 0.15869038 -0.23831321 0.28252485
-0.2789919 -0.0032856194 -0.23354907 -0.15148593 -0.10650231 0.044543218 0.2750778 -0.29017746
0.102577224 0.04889026 0.2591345 -0.29787877 -0.13730036 -0.16094534 -0.25572878 -0.150723
-0.0419615 0.3154016 0.110520795 -0.055031415 -0.22966675 0.2665294 -0.29614866 -0.034878902
0.28732246 0.13959843 0.29365093 0.009057833 0.045991506 0.13392492 -0.16656569 -0.17272826
-0.04210544 0.11347806 0.076926425 0.16167384 -0.11037632 0.025971169 -0.18333149 0.110797055
-0.13921338 0.074633256 0.079325065 -0.1920336 0.088536456 -0.20354827 -0.0098297745 -0.004437473
0.20177798 0.21721207 0.17589761 0.33233893 0.24881232 -0.1270437 -0.13301577 -0.17380704
-0.20500116 0.047065813 0.2534829 0.07661699 -0.0013964262 -0.20319478 -0.23277378 -0.024940908

bias f4 [256]
00000000: 158e 94be 8d64 ff3d 2e03 9c3d ddbb 4fbd
00000010: e492 6bbe dd84 4abe 79f8 91be 6250 a7bd
00000020: e8a9 883e 258a 34be 50df 8e3e 438a 2abe
00000030: d03c 0bbe c5e0 df3d 82a1 b93e bf88 06bd
00000040: 8845 a63e ecbd 163e d802 593d 4412 803d
00000050: 8a83 2ebe e9fd ddbc 03cf 533d c5e2 2f3d
00000060: 13c1 713e 6ab6 5cbe d277 e53d f1d8 a8bd
00000070: 0969 7cbe 3aad 483c 2d4f fe3c 5cac 4bbd
00000080: 7c6b 80be 2412 703e 8d7b 033e bd28 543e
00000090: 6daa ce3d 281e 20bd 0fc8 4dbe cd32 2e3d
000000a0: b8cf 40be ba1e 50bc 4b15 30be e5fd 423e
000000b0: 1ed6 66be 5de9 6dbe 00f9 fa3c e213 7bbe
000000c0: a5ea e93d 7ab0 49bd abee 13be 4db0 983e
000000d0: 5b15 9d3d 5a88 dbbd 1171 a4be 6c57 9fbe
000000e0: 764e 9b3e d42b 483e b76e 523c 52aa 2dbe
000000f0: b0e2 6f3e 8d72 3bbe 56b8 953e a500 4ebe
00000100: 7243 19be c04e 823e 6618 c33d 72f3 be3d
00000110: 339f 8e3e a2fa 3cbe 38ea 8abd e2c8 8dbb
00000120: 0f82 253d cff0 88bd 7f4c 823e fc5d 15bd
00000130: 627e c1bd 122f 403e f087 07be 47ea 4fbe
00000140: a2ef 2cbe c5b4 6f3d 83f7 a03e 20c2 d0bd
00000150: 404f edbd 178e 1ebe 99c9 743d 7b4b 74be
00000160: 8563 213e 02f6 59be ff8b 183e 7a94 f33d
00000170: 02cc 79bb a791 17be 7ee7 93bd 239d 953e
00000180: bf63 91be 1ec9 27be a7e8 59be afe5 7d3e
00000190: d54b 033e 3663 083e 2ef8 5f3e b68f d93d
000001a0: 0982 1a3e 5d06 1e3c 7bb8 91be 14dc 273e
000001b0: 090b ad3d 01f9 4d3e 1a0d a33d 9681 04bd
000001c0: 4492 6bbe b371 5bbe 8dd4 253e 0deb 14be
000001d0: 66e6 50be e76d 3bbe e327 263e 02cd f8bd
000001e0: 4d00 f43d 79db 26be 1cc2 0fbe 3575 9a3d
000001f0: fd73 49be e642 4e3e 5abd cbbd 9cd3 49be
00000200: f173 333e 56dc 1e3e e2f4 1fbe dab0 39be
00000210: 2607 96be 7470 0d3e 8100 8abe 44df 0f3e
00000220: 289f 193e 25f5 00be 963c 90be bd3b 91be
00000230: ab56 00be 1567 473e 01c4 bdbd 7db3 e5bd
00000240: 6ce6 da3d e1bd 1cbd 4a83 23be 415b 04be
00000250: f656 debd 7e75 253e a648 8cbe 79c5 963e
00000260: 0f78 913d f09f 84be 88bf 1b3e 6db5 99be
00000270: c0f5 a73d cc60 7cbe 65bb b8bd aabd 073e
00000280: e6c0 f63d 7006 e0bd afd1 92bd 514e 833d
00000290: 652e 723e 4b71 383e 9f20 e83d 0887 16be
000002a0: d184 90bd 844c c43d 7b6e 633e b9d3 d1bd
000002b0: d445 3fbe 896f 81be e109 903e 46b7 59bd
000002c0: 3f2f 8d3e e385 e63d db12 90be 0abd 5a3e
000002d0: 53cd 8a3e 58b1 81be 0dfa adbb 013f 3dbb
000002e0: 0802 483e 2a52 0a3e 0135 173e 4f46 96be
000002f0: 7e93 8dbd 1eb1 0bbe b5e1 443d 6897 5fbe
00000300: d291 b8bd cb82 da3c 238a 80bd ffc0 d23c
00000310: a6a5 153e acb5 d93d 55c6 f5bd 4dc6 803d
00000320: 69d1 623c 16c7 ce3d a4a0 87bd 32f9 363e
00000330: bedf 6cbe 32e6 b23d 8b1c cf3d c7b8 05be
00000340: 86ae 94be 71d7 19be 8689 7dbe 676c 61be
00000350: ee60 e1bd 61f0 cb3d 5ab2 e8bd bc58 7f3e
00000360: 1c63 563e 6846 c13c 8a4c 94bd f91d 3fbe
00000370: 0a82 863e cc80 46be e349 7cbe 324f 103e
00000380: f1a8 7e3e d561 99be 977d 4a3e ff2f 90be
00000390: 0871 2ebc c688 08be 95d6 31bd 4c84 22be
000003a0: 6766 3cbe 9f0c d13d dbcb 84be c21f 91be
000003b0: a5c1 bebd f2db 5abe 4f2b 3f3d ca27 21bb
000003c0: 5720 993e 2016 a13d 6e6f 263d 794d ec3d
000003d0: 814f ee3d 268a 7e3e bd84 5fbd 6e71 4e3e
000003e0: 152a 4f3e 0b79 98be a0ca ab3e 1cdd 6e3d
000003f0: 42c3 a6bd 8206 96be 8026 51be 837b 2a3d
-0.2901465 0.124703504 0.07617794 -0.05071627 -0.23005253 -0.19777246 -0.28509882 -0.08169629
0.26692128 -0.17630823 0.2790475 -0.16654305 -0.13597417 0.10931543 0.36256033 -0.032845255
0.32474923 0.14720887 0.052981228 0.06253484 -0.17042366 -0.027098613 0.051711094 0.042940874
0.23608808 -0.2155396 0.112044945 -0.08244503 -0.24649443 0.012248332 0.031043613 -0.04972492
-0.25082004 0.2344442 0.128401 0.20718665 0.100911 -0.03909126 -0.20095848 0.042528916
-0.18829238 -0.012702638 -0.17195623 0.19042166 -0.22542617 -0.23233552 0.03063631 -0.24519303
0.11421708 -0.049240567 -0.14446513 0.29822007 0.07670089 -0.10719366 -0.32117513 -0.31121385
0.30333298 0.19547969 0.012843779 -0.16959503 0.23426318 -0.18305416 0.292422 -0.20117433
-0.14967135 0.25450706 0.09526138 0.09323777 0.27855834 -0.18454984 -0.06782955 -0.0043269256
0.040407237 -0.066865556 0.25448987 -0.036466584 -0.09447934 0.18767956 -0.1323545 -0.20304213
-0.16888288 0.058522005 0.31438836 -0.101932764 -0.11587381 -0.1548389 0.05976257 -0.23856919
0.1576062 -0.21285251 0.14897154 0.11893554 -0.0038115983 -0.14801656 -0.07221888 0.29221448
-0.28396413 -0.16385314 -0.21280156 0.24794649 0.12821896 0.13319096 0.21872017 0.10623114
0.15088667 0.009645072 -0.2846106 0.16392547 0.084493704 0.20114519 0.07961483 -0.032350145
-0.23005015 -0.21430092 0.16194363 -0.1454279 -0.2040039 -0.18303643 0.16226153 -0.12148477
0.1191412 -0.1629466 -0.1403889 0.07541887 -0.19673152 0.20142707 -0.09948225 -0.19709629
0.17524697 0.15513739 -0.15620759 -0.1813387 -0.2930233 0.13812429 -0.2695351 0.14050013
0.1500212 -0.12593515 -0.28171223 -0.2836589 -0.12533061 0.19472916 -0.092659004 -0.11215875
0.10688481 -0.03826702 -0.15968052 -0.12925436 -0.1085643 0.16158101 -0.27399176 0.29447535
0.071029775 -0.25903273 0.15209782 -0.3002123 0.0820117 -0.246463 -0.09020118 0.13255945
0.12048511 -0.10938728 -0.071689 0.06411422 0.2365051 0.18011968 0.11334347 -0.14699948
-0.07056583 0.09584907 0.22210114 -0.10245461 -0.18678981 -0.25280407 0.28132537 -0.0531533
0.27575108 0.112560056 -0.28139386 0.21361175 0.27109775 -0.25330615 -0.0053093494 -0.0028876665
0.19532025 0.13507906 0.14766313 -0.29350516 -0.069128975 -0.13641784 0.048066813 -0.218351
-0.09012188 0.026673695 -0.062763475 0.025726793 0.14613971 0.10630354 -0.120007195 0.06287823
0.013843873 0.100965664 -0.06622437 0.17868498 -0.23132226 0.087353125 0.10112866 -0.13058768
-0.290394 -0.1502359 -0.24759492 -0.22014008 -0.11004816 0.09957958 -0.11362143 0.24936193
0.20936245 0.023593143 -0.07241161 -0.18663777 0.26271087 -0.1938507 -0.2463756 0.1409271
0.24869134 -0.29957452 0.19774471 -0.28161618 -0.010647066 -0.13333425 -0.043417532 -0.1587078
-0.18398438 0.102074854 -0.2593678 -0.28344542 -0.093142785 -0.21372965 0.04667216 -0.0024590367
0.29907486 0.07865548 0.04063361 0.11538214 0.11636258 0.24857387 -0.05456995 0.20160457
0.20230897 -0.29779848 0.33553028 0.058316335 -0.08142711 -0.2930184 -0.20424843 0.041621696

weight f4 [3, 256]
00000000: e894 3ebc bb20 82bd 6ce0 36bd 9b27 6a3c
00000010: be10 683d 26be b83c 4d8c abbc 096f 093d
00000020: 0e2e 87bc a45c c6bc dac1 7abd 3003 7e3c
00000030: 89ab 453d 843f eebc 2d6a 5fbd b368 9cbd
00000040: 0547 a3bd 5184 51bd 4fbe 71bd dc70 7ebd
00000050: 3271 95bd 3435 35bc 2a9e d4bd 68b7 62bc
00000060: 7996 a6bd 8aed 48bd 9419 d5bb 9ca0 60bc
00000070: 5bb7 37bd e6e8 193d fe35 9dbd 2ede 2fbd
00000080: 9c3d 663c 44e1 9dbd 150b 95bd c50b 1b3d
00000090: 17ff 6cbd 3119 b23c 521a ef3b 1805 3abb
000000a0: bcfb 7b3d a3ff 993c 601d f2bc d01c aebd
000000b0: 303f c8ba 17d8 8cbc 4c83 d23c e738 1bbd
000000c0: dabe 32bd fd45 54bd 09de d7bc 88f2 e6bc
000000d0: 20da 94bd 1d58 9fbd d22c 053c 0e60 03bd
000000e0: dff6 41bc 4277 693c 5bc2 9f3d 788d b3bd
000000f0: 24d8 86bd c021 01bb a587 bfbd a12f aabc
00000100: 8047 f2bc d2e6 44bd 1e62 a03c e43b bbbc
00000110: 7aa7 65bd d402 c3bc e04c 55bd 1c35 9ebd
00000120: 021a dabc efb5 4abd 5d8e 0f3b b8aa 463d
00000130: 52ca cf3c 8899 0cba 90a6 903c f784 8dbc
00000140: 548f 5cbd 74dd b93c bb20 87bd b805 65bd
00000150: a90a c93d d597 98bd c31d a7bc 3707 3a3c
00000160: 5a5e 87bd 6a5d dcbc f80b 103d 41e9 bc3c
00000170: 3bd6 f6bc a95a ccbc a003 e13c a41e 9ebd
00000180: e019 663d 6880 10bd 555f 89bd ad9b 2dbd
00000190: 9b65 cbbc 1c7e 55bd 4687 0ebd 3c0e c83c
000001a0: efa1 80bd 73be 05bc 5489 7bbb b3aa 733c
000001b0: 6271 87bc 964f 13bb 6c64 0abd 20c9 1dbd
000001c0: f095 2fbd 8c75 953c 03a2 8bbd ab16 273d
000001d0: 3088 74bd 6e4f b5bc fe8a d9bc ecdb eabb
000001e0: 0b72 3ebd a0f3 94bb 5f9d 4c3d 6fdd 403c
000001f0: 745a e53b 9280 89bd 7d8a bdba c843 45bd
00000200: abdf 223c fec5 3b3c 4007 ae3c 25e1 36bc
00000210: 38b4 01bd 8d57 573c b803 df3c fe31 d0bc
00000220: c164 83bc c4a9 02bd a436 c93b a6c1 7abd
00000230: caf2 ccbc 5fff 5fbd b07e 193d 40f3 343c
00000240: 3c88 03bc cb51 523d e0b9 473d 2cb9 a6bd
00000250: 47bc 51bd 08f3 d6bc a8b6 023d 4e06 abbd
00000260: 800e 59bc 5e73 8fbc 8375 f1bb 9079 d8bc
00000270: 3098 103d 0a69 95bd 4d28 2bbd e3d5 9dbd
00000280: f524 6abd 045f b43c 3405 6cbd 8421 a3bc
00000290: 2f30 abbc 9b11 123d 9aef 37bd 7624 2a3c
000002a0: c5fc 10bd a475 3dbd 8a7d f43c 5ad5 0ebd
000002b0: e479 9d3c 11b2 c1ba 554d 45bd 0966 e6bc
000002c0: e990 2a3c 06c6 20bd 365e 82bc f5fe 9ebd
000002d0: 7e25 d23c 7171 adbd f22b 80bd 4df3 f03c
000002e0: 6408 1fbd 6576 503c 1d11 a03c 9661 43bd
000002f0: e59b 1abd 5a0c ed3c f775 d3bb 0c82 31bd
00000300: 7fd4 553c face 123d 648f ddbc b4f2 ff3c
00000310: 1f57 1dbd 51cd ab3b e7ef febc 5643 663d
00000320: 5248 81bd 067e 5dbc d708 2fbd b680 98bb
00000330: 6b7f 023c 8f52 b1ba 9e35 213d b29d 0abc
00000340: 2c39 8fbc 44dd 0c3d 79e7 773c a0d5 cb3b
00000350: cd47 23bc ff00 113d 4446 a83c dd50 c93c
00000360: a70e 47bd 9682 92bd 19ee adbc 3801 75bc
00000370: 5436 a3bd d88f 663d ca45 cbbb bb69 2dbd
00000380: 1f94 19bc 5229 c13c 1bab 3f3b f40c b7bc
00000390: ee7b 52bc 7292 77bc 6598 91bd 5477 163d
000003a0: 8e7b 58bc 8b8a a7bd 7e42 6b3d 8014 aebc
000003b0: e12c 5ebc 96b3 bcbc a473 a7bd 1170 c1bc
000003c0: bdff 64bc bf1b 68bc 10ec 53bd 120b 07bd
000003d0: d7db 5ab9 c918 60bd 230a 463d 88c3 9e3c
000003e0: 3fc9 2abc 0c51 5abd 2ea8 e73c 03fe 843c
000003f0: d9db c73c d514 fcbc 682f 0a3c 693e 68bc
-0.011632182 -0.06353899 -0.04464762 0.014291669 0.05665659 0.022551607 -0.020940924 0.033553157
-0.016501453 -0.024214096 -0.061220028 0.01550369 0.04825929 -0.029083021 -0.054544616 -0.07637157
-0.0797253 -0.051151577 -0.059019383 -0.06211935 -0.07296981 -0.011060048 -0.1038173 -0.013837673
-0.08134169 -0.04905466 -0.0065032933 -0.013710167 -0.044852596 0.037575625 -0.07676314 -0.042936496
0.014052775 -0.07708982 -0.07277504 0.03785302 -0.05786046 0.021740528 0.007296839 -0.0028384384
0.06151937 0.018798655 -0.029555023 -0.08501589 -0.001527762 -0.017192883 0.025697373 -0.037896063
-0.04363904 -0.05182456 -0.026350992 -0.02819182 -0.072681665 -0.07780478 0.008128362 -0.032074027
-0.011838644 0.014249625 0.07800742 -0.087672174 -0.06584194 -0.0019703954 -0.09352044 -0.020774664
-0.02957511 -0.04807169 0.019578036 -0.022855707 -0.05606792 -0.02380506 -0.052075267 -0.077249736
-0.02662373 -0.04948991 0.0021904923 0.048502654 0.025365029 -0.0005363454 0.017657548 -0.017275317
-0.053847626 0.022688605 -0.0659804 -0.055913657 0.098164864 -0.07450835 -0.020399934 0.011354259
-0.06609793 -0.026900012 0.035167664 0.023060443 -0.03013145 -0.024945574 0.027467549 -0.07720688
0.05617702 -0.035278708 -0.06707636 -0.042384792 -0.024828723 -0.05212222 -0.034796976 0.02442085
-0.062808864 -0.008163082 -0.0038381414 0.014872241 -0.016533557 -0.0022477857 -0.033787176 -0.038521886
-0.0428676 0.018244527 -0.06818011 0.040793102 -0.05970019 -0.022132602 -0.026555534 -0.00716733
-0.04649548 -0.004545644 0.04995477 0.011771544 0.0069993082 -0.06713976 -0.0014460828 -0.048160344
0.009941022 0.011460779 0.021243691 -0.011162077 -0.03166601 0.013143432 0.027223453 -0.025414463
-0.016039254 -0.031900182 0.006140547 -0.061219834 -0.025018115 -0.0546869 0.037474334 0.011044323
-0.008028086 0.051347535 0.04876125 -0.081407875 -0.051204946 -0.026238933 0.031912476 -0.08350812
-0.013248086 -0.017511066 -0.007368745 -0.026425153 0.035301387 -0.07295425 -0.04178648 -0.07706811
-0.05716415 0.022017963 -0.05762215 -0.019913442 -0.020897 0.03566132 -0.044906236 0.0103846695
-0.03539731 -0.04625477 0.029845018 -0.034871437 0.019223161 -0.0014777799 -0.048169453 -0.028124826
0.010410526 -0.03925135 -0.015914064 -0.07763473 0.025652643 -0.08468903 -0.06258382 0.02941289
-0.03882636 0.01272354 0.01953941 -0.047700487 -0.03774633 0.028936554 -0.0064532715 -0.043336913
0.013051151 0.03584192 -0.027045913 0.03124366 -0.038413163 0.0052429815 -0.031120254 0.05621656
-0.06312622 -0.013518816 -0.04273304 -0.0046540154 0.007964949 -0.0013528633 0.039357774 -0.008460449
-0.017483316 0.034390703 0.015130871 0.0062205344 -0.009965849 0.03540134 0.020541318 0.024574691
-0.048597958 -0.071538135 -0.021231698 -0.014953904 -0.07969347 0.056289524 -0.006203388 -0.04233716
-0.009373694 0.023579273 0.0029246274 -0.022345044 -0.01284693 -0.015110599 -0.07109145 0.036734894
-0.0132130515 -0.08180722 0.05743646 -0.02125001 -0.013560505 -0.023034852 -0.081763536 -0.023613008
-0.013976988 -0.014166771 -0.0517388 -0.03296954 -0.00020871997 -0.054711137 0.04834951 0.019380346
-0.010423957 -0.05329995 0.028278437 0.016234403 0.024396824 -0.030771652 0.008434154 -0.014175036

bias f4 [3]
00000000: 1c28 21bd 0fb2 48bb c463 51ba
-0.039344892 -0.003062371 -0.00079875835
